650.pth (torch, 436322 bytes, 65 tensors)

head_conv.0.weight f4 [20, 20, 3, 3]
0	0xbc40464e	-0.011735512
1	0x3c80ec95	0.015737811
2	0x3c599431	0.0132799605
3	0x3ccd70f2	0.02507827
4	0x3d77a5d4	0.06046088
5	0x3d059e32	0.03262157
6	0x3c61d6fb	0.0137841655
7	0x3d0493d7	0.032367554
8	0x3c29c7a7	0.010362542
9	0x3cd57e5c	0.02606123
10	0x3d7a8a05	0.061166782
11	0xbd243831	-0.04009265
12	0x3cea354f	0.028589873
13	0x3d9235c5	0.07139162
14	0xbd5db3b0	-0.05412644
15	0x3d3d3bec	0.046199724
16	0x3d2d7981	0.042352203
17	0x3b017454	0.0019753175
18	0xbb8e6407	-0.0043454203
19	0x3d90e8d0	0.070756555
20	0x3d4569d7	0.04819664
21	0x3d7b4c1e	0.061351888
22	0x3c983bde	0.018583234
23	0x3d253524	0.040333882
24	0x3cb6bbfc	0.022306435
25	0x3c1be417	0.00951483
26	0x3ca538a6	0.020168614
27	0xbdb528a6	-0.08845644
28	0xbd9d3344	-0.07675794
29	0xbd36d803	-0.0446396
30	0xbd756998	-0.059915155
31	0xbd96f96f	-0.073717944
32	0xbd56ba28	-0.052423626
33	0xbcab53de	-0.020914014
34	0xbd11ee3e	-0.035627596
35	0xbc986e81	-0.01860738
36	0x3b40e55d	0.0029433586
37	0x3cb34a9b	0.02188616
38	0xbc7dd600	-0.015492916
39	0x3cd7138b	0.026254436
40	0x3d105423	0.03523649
41	0xbc8ba8cb	-0.01704826
42	0x3c16c294	0.0092016645
43	0x3d3f883c	0.046760783
44	0x3d203cd3	0.039120506
45	0x3d061b35	0.03274079
46	0x3cd87e3e	0.026427384
47	0x3c295a39	0.010336452
48	0xbd1e3d36	-0.038632594
49	0xbced6999	-0.028981017
50	0x3c2a398c	0.010389697
51	0xbb6a584e	-0.00357582
52	0xbd017c93	-0.031612944
53	0xbd59502f	-0.053054985
54	0x3be9d522	0.007136003
55	0xbc0c653f	-0.008569061
56	0x3c48cfb4	0.0122565515
57	0x3cb931fc	0.022606842
58	0x3c9f86bd	0.019473428
59	0x3cf1374c	0.029445313
60	0xbae0a118	-0.0017137853
61	0xbb75a16a	-0.0037480243
62	0x3ca0ea32	0.019642923
63	0xbd586957	-0.052834835
64	0x3c0e23ca	0.008675525
65	0x3d3fca7b	0.04682396
66	0xbd8a6b98	-0.06758803
67	0xbd249083	-0.04017688
68	0xbd365991	-0.04451901
69	0x3ce3211a	0.027725745
70	0x3d8d20f7	0.06891053
71	0x3db83ac7	0.08995586
72	0x3d89954a	0.06717928
73	0x3b6270be	0.0034552063
74	0xbca234a3	-0.01980049
75	0xbc392e56	-0.011302551
76	0xbd2b146a	-0.041767515
77	0xbcf92488	-0.030412927
78	0x3d12b738	0.035819262
79	0x3d18de60	0.03732145
80	0x3d233ba1	0.03985179
81	0x39d92d77	0.0004142334
82	0x3cb58d39	0.022162067
83	0x3c1874e0	0.009305209
84	0xbd660e3b	-0.056165915
85	0xbd11b18f	-0.035569724
86	0xbd03de9f	-0.03219473
87	0xbcf91447	-0.030405177
88	0xbd28217e	-0.041047566
89	0xbd5003aa	-0.050784744
90	0x3d3217f3	0.04347987
91	0x3d004a00	0.031320572
92	0x3d0f8c30	0.035045803
93	0xbb86fa06	-0.0041191606
94	0x3cd552f9	0.026040541
95	0x3d14b3ef	0.03630441
96	0xbcf94417	-0.030427976
97	0x3b8222c0	0.0039714277
98	0x3d14ed08	0.036358863
99	0x3c6d525b	0.014484967
100	0x3cf6a01a	0.03010564
101	0x3d5e6d51	0.05430347
102	0x3cfb39d5	0.030667225
103	0x3d749d97	0.059720602
104	0x3df749b5	0.120746054
105	0xbda93966	-0.08262901
106	0xbd57ed40	-0.052716494
107	0x3cdd30cf	0.027000813
108	0x3d268310	0.040652335
109	0xbc758035	-0.01498418
110	0xbd425eeb	-0.047453802
111	0x3cdf61e3	0.027268356
112	0xbc62293f	-0.013803779
113	0x3ba4fb6d	0.005034855
114	0x3d7372cc	0.05943565
115	0x3d5c644e	0.053806596
116	0xbc2c45d6	-0.010514697
117	0x3c77d251	0.015125827
118	0x394b89b5	0.00019410888
119	0x3c0a70d7	0.008449755
120	0x3d5b595a	0.05355201
121	0x3d49af0e	0.04923921
122	0xbd013ac7	-0.031550195
123	0x3c24841d	0.010041264
124	0xbc190082	-0.0093385
125	0x3c87ae57	0.016562624
126	0xbd263c29	-0.040584717
127	0xbd3edd6b	-0.04659788
128	0xbd858823	-0.06520107
129	0xbd562d52	-0.052289315
130	0xbd4af962	-0.049554236
131	0xbd63f00b	-0.055648845
132	0xbd243b78	-0.040095776
133	0xbd3adbb0	-0.045619667
134	0xbd7702db	-0.060305458
135	0xbd8efc53	-0.06981721
136	0xbd4465bb	-0.04794858
137	0x3cb0f9fe	0.02160358
138	0xbd53cdce	-0.051709943
139	0xbd1b3104	-0.03788854
140	0xbccefe11	-0.025267633
141	0xbbadfa02	-0.0053093443
142	0xbc6f08e5	-0.014589523
143	0xbd154009	-0.03643802
144	0xbc1be1a1	-0.009514243
145	0xbcc129e6	-0.023579549
146	0xbcd4b8ac	-0.025966965
147	0xbc008272	-0.007843601
148	0xbced56e2	-0.028972093
149	0xbc872050	-0.0164949
150	0xbc5eda7f	-0.013601898
151	0xbc1ce410	-0.009575859
152	0x3c0e42a2	0.008682879
153	0x3cbbe858	0.022937939
154	0x3d8fc7ae	0.07020508
155	0x3d668917	0.056283083
156	0x3bce7aa5	0.0063012415
157	0x3d01b72e	0.031668834
158	0x3d3119e5	0.043237586
159	0xbc49e35e	-0.012322275
160	0x3afecee0	0.0019440316
161	0x3c4ef170	0.012630805
162	0x3d185650	0.03719169
163	0x3d31b0d5	0.04338153
164	0x3d674640	0.05646348
165	0x3d89bb03	0.06725123
166	0x3d359ad5	0.044337112
167	0x3d15f378	0.036609143
168	0x3dc2d76c	0.09513745
169	0x3d43f056	0.047836624
170	0x3d69eb24	0.057109013
171	0x3d50d2c3	0.050982248
172	0x3c616bc7	0.013758606
173	0xbca99790	-0.020702153
174	0x3d11f35b	0.035632472
175	0x3c8cc0d9	0.0171818
176	0xbbba4508	-0.0056844987
177	0xbc7699aa	-0.015051285
178	0xbccbc830	-0.02487573
179	0xbcedcb3c	-0.029027574
180	0xbcb911dc	-0.022591524
181	0xbafd4630	-0.0019323286
182	0xbb704466	-0.0036661862
183	0x3b2fe547	0.002683954
184	0x3c3f9504	0.011693243
185	0x3c84410f	0.016144304
186	0xbcf788c4	-0.030216582
187	0x3cfe98d4	0.031078734
188	0xbd46f1b0	-0.048570335
189	0x3d8582d8	0.06519097
190	0x3d9133a7	0.0708993
191	0x3cb3f2bc	0.02196633
192	0x3d08e621	0.033422593
193	0x3c89f787	0.016841663
194	0xbe3b48d5	-0.18289502
195	0x3c69c4e6	0.014268136
196	0x3e23cc63	0.15995936
197	0xbe34728e	-0.17621824
198	0xbd0ea7a3	-0.03482784
199	0x3c66ce54	0.014087278
200	0xbd2d45fa	-0.042303063
201	0x3d178310	0.036990225
202	0x3de295ac	0.11063704
203	0xbd12b625	-0.035818238
204	0x3df0f4f2	0.117654696
205	0xbde6c232	-0.112675086
206	0x3e0a8db6	0.13530621
207	0x3c3be0a9	0.011467137
208	0x3cb324cb	0.02186813
209	0x3dda1b7d	0.10649774
210	0xbd01bb19	-0.03167257
211	0x3d49647b	0.04916809
212	0x3c166d29	0.009181299
213	0xbd5c5a7b	-0.053797226
214	0xbda3de66	-0.080014035
215	0x3d738797	0.05945548
216	0xbd880c45	-0.06642965
217	0xbd6140b1	-0.054993335
218	0x3cea8042	0.028625611
219	0xbd1010b7	-0.03517219
220	0xbd0dd4b1	-0.034626666
221	0x3d8882eb	0.066655956
222	0xbce06787	-0.027393116
223	0xbc0f3e63	-0.0087429015
224	0x3dc78fe9	0.097442456
225	0x3dbc8ece	0.09206925
226	0xbd99b7d3	-0.07505765
227	0x3dcbb17a	0.0994596
228	0x3cec258e	0.028826501
229	0x3d9d388a	0.076767996
230	0x3d0ce757	0.03440031
231	0x3d8bd783	0.06828215
232	0x3d82df54	0.06390253
233	0x3d39289b	0.04520474
234	0xbd189524	-0.037251607
235	0xbdacfc39	-0.08446545
236	0xbd9631b1	-0.07333697
237	0x3b1c9954	0.0023895102
238	0x3bdae168	0.0066797026
239	0xbc6cac4a	-0.014445374
240	0xb9272d04	-0.0001594313
241	0xbc6a2d64	-0.0142930485
242	0x3aaa7d4f	0.0013007316
243	0xbd45d311	-0.04829699
244	0x3dcfd317	0.10147684
245	0xbc4999ca	-0.012304733
246	0xbd1e629f	-0.03866827
247	0xbe210626	-0.15725002
248	0xbcd71e19	-0.026259469
249	0x3ca6faeb	0.020383319
250	0x3d2c7444	0.042103067
251	0xbd971a58	-0.073780715
252	0xbd4367e2	-0.047706492
253	0x3cd89147	0.026436461
254	0x3a3a35e7	0.0007103369
255	0xbdb606f5	-0.08888046

head_conv.0.point_wise.weight f4 [20, 9, 1, 1]
0	0xbf6348f2	-0.8878318
1	0xbd968bbd	-0.07350872
2	0x3ec91599	0.3927429
3	0x3eb613ab	0.3556188
4	0xbec5ee52	-0.38658386
5	0x3ea42690	0.3206067
6	0xbec58099	-0.38574675
7	0xbe0af9fe	-0.13571927
8	0xbe29e826	-0.16592464
9	0x3ea7ee71	0.32799104
10	0x3e617d5d	0.22020479
11	0xbeccf267	-0.40028688
12	0xbe00622a	-0.12537447
13	0x3ebcde9b	0.36888584
14	0x3daa0743	0.08302166
15	0xbea137c2	-0.31487852
16	0xbe1189da	-0.14212742
17	0xbdd1b86b	-0.10240253
18	0xbf666c28	-0.90008783
19	0x3e6aa67c	0.22915071
20	0x3e711300	0.23542404
21	0x3eb0ab79	0.34505823
22	0xbeb41a49	-0.35176304
23	0x3df88038	0.12133831
24	0x3ee9eead	0.45689908
25	0x3f24ed6c	0.6442478
26	0x3dabab13	0.08382239
27	0x3f182f8d	0.59447557
28	0x3ef31621	0.4747782
29	0xbc077a3c	-0.008268889
30	0xbec8866d	-0.3916506
31	0xbe5f365f	-0.21798085
32	0x3e936e5e	0.2879514
33	0xbddc7275	-0.107640184
34	0xbef70f14	-0.4825369
35	0xbe8fab2b	-0.28060278
36	0x3f1cffbd	0.61327726
37	0x3e289fbb	0.16467182
38	0xbdaaf3b8	-0.08347267
39	0x3e827269	0.25477913
40	0xbe83c27a	-0.2573431
41	0xbe817749	-0.2528632
42	0xbde38891	-0.11110032
43	0xbf1cc2e8	-0.61234903
44	0x3e010cac	0.1260249
45	0x3ea5a182	0.32349783
46	0x3e5223ce	0.20521471
47	0x3e0395b1	0.12850071
48	0x3e142ed6	0.14470991
49	0xbdbec319	-0.09314556
50	0x3f0fed74	0.562217
51	0xbea48504	-0.32132733
52	0x3df1b7e6	0.11802654
53	0xbe8a4386	-0.2700464
54	0xbd95d429	-0.07315857
55	0x3ec1bd94	0.3783995
56	0xbe79487e	-0.2434406
57	0x3db3af46	0.08773665
58	0xbcd3ac86	-0.025839102
59	0x3e251f88	0.1612531
60	0x3d765168	0.06013623
61	0x3e08e3ec	0.13368195
62	0x3ef85f33	0.4851013
63	0xbf140d74	-0.5783303
64	0x3d25377c	0.040336117
65	0x3b656c98	0.0035007354
66	0x3eaeef81	0.34167102
67	0xbc0cf9eb	-0.008604507
68	0x3e8c5674	0.27409708
69	0x3e884b38	0.26619887
70	0xbefe167d	-0.49626532
71	0x3ea67a2e	0.3251509
72	0x3f265ca7	0.64985126
73	0x3e8265e5	0.25468364
74	0xbe6af1b9	-0.22943772
75	0x3eec2802	0.46124274
76	0xbebb5fa5	-0.36596408
77	0x3eaf663a	0.3425768
78	0x3e713213	0.23554258
79	0xbdb9a5f2	-0.09064855
80	0x3e5d7a01	0.21628572
81	0xbe025921	-0.12729312
82	0xbe201751	-0.15633895
83	0xbe9b6c89	-0.30356243
84	0xbc8f69fe	-0.017506596
85	0x3e664051	0.22485472
86	0xbec7c36f	-0.39016291
87	0x3f543d9a	0.82906497
88	0x3cd05256	0.025429886
89	0xbe4c6f06	-0.19964227
90	0xbdb79a25	-0.089649476
91	0x3edbc592	0.42924172
92	0x3dd8e3bb	0.10590311
93	0xbd6cf9f0	-0.057855546
94	0x3ec00228	0.37501645
95	0xbea4480a	-0.3208621
96	0xbedc59ba	-0.43037206
97	0x3e35022e	0.17676613
98	0x3e4a2505	0.19740684
99	0x3f1cd84f	0.6126756
100	0x3e041614	0.12899047
101	0x3e8c83f6	0.27444428
102	0xbdcfda24	-0.10149029
103	0x3ebf9a23	0.37422284
104	0xbe718d6e	-0.23589107
105	0x3d2301b6	0.039796554
106	0x3df42cba	0.119225934
107	0x3e2f795a	0.17136136
108	0x3eb7c37a	0.35891324
109	0xbf1e0dcb	-0.61739796
110	0xbdb00e04	-0.08596423
111	0xbc090c34	-0.008364726
112	0x3cbb5c72	0.02287123
113	0xbeab866b	-0.3350099
114	0xbcfe4f90	-0.031043798
115	0x3e5878f2	0.21139887
116	0x3a1f67f3	0.00060808583
117	0x3f4b1498	0.793283
118	0x3d4ed6e6	0.050497912
119	0xbcb73e77	-0.022368653
120	0xbdf45d89	-0.11931903
121	0x3d42e791	0.04758412
122	0xbead6770	-0.3386798
123	0xbedc4325	-0.43019977
124	0xbdfa5925	-0.12224034
125	0x3e32fa32	0.17478254
126	0x3cd7a89b	0.026325515
127	0x3b865257	0.004099171
128	0xbd143f60	-0.03619325
129	0x3ecb72f7	0.3973615
130	0x3f2c2d0e	0.6725625
131	0xbeac28eb	-0.33624968
132	0xbc884bce	-0.016637709
133	0x3d580fab	0.052749317
134	0xbf1a0e63	-0.601782
135	0x3eba83ce	0.36428684
136	0x3f291476	0.66046846
137	0x3f28e636	0.65976274
138	0xbe8b2e90	-0.27183962
139	0x3e99f3c9	0.30068806
140	0x3c4a8c66	0.012362575
141	0xbeff5b8a	-0.49874526
142	0xbe736e03	-0.23772435
143	0xbe84b84b	-0.25921854
144	0xbd939c9f	-0.072076075
145	0xbeccce14	-0.40000975
146	0x3db91f72	0.09039201
147	0xbe53e91a	-0.2069439
148	0x3ecdeb74	0.402187
149	0x3d837b5d	0.06420014
150	0xbe4f1fae	-0.20226929
151	0x3dc07f08	0.09399229
152	0xbd4fb40e	-0.050708823
153	0x3eae55de	0.34049886
154	0xbe65c137	-0.22436987
155	0x3c8deeb5	0.017325738
156	0xbeefc665	-0.4683105
157	0x3d715143	0.058915388
158	0x3e2a6ccc	0.16643065
159	0xbe068b36	-0.13139042
160	0x3e8f3e11	0.2797704
161	0x3e91241c	0.28347862
162	0x3f08f0cb	0.5349242
163	0x3f5b09e2	0.85561955
164	0xbf059500	-0.5218048
165	0xbe60ea09	-0.21964277
166	0x3db1ed27	0.08687811
167	0xbe191c44	-0.14952189
168	0xbf2ebd65	-0.68257743
169	0x3edec5af	0.43510196
170	0xbe331268	-0.1748749
171	0x3db55985	0.08854965
172	0x3b44e67f	0.0030044613
173	0xbe80346f	-0.25040004
174	0xbdf753a3	-0.12076499
175	0x3df2c399	0.118537135
176	0x3e323fbb	0.17407124
177	0xbd85589b	-0.06511041
178	0x3eab62b4	0.33473742
179	0x3e240235	0.16016467

head_conv.0.point_wise.bias f4 [20]
0	0x3d6f9a08	0.058496505
1	0x3c595902	0.01326585
2	0xbda83523	-0.0821326
3	0x3d39369e	0.045218103
4	0x3c83a62f	0.016070453
5	0xbdc45e56	-0.09588306
6	0xbd572817	-0.052528467
7	0x3b83c200	0.0040209293
8	0xbe03fc04	-0.12889105
9	0x3bcacfad	0.0061893077
10	0xbd2a9b62	-0.04165209
11	0xbe2d7a60	-0.16941214
12	0x3c6700be	0.014099298
13	0xbc8a6415	-0.016893426
14	0xbd0bcab9	-0.03412888
15	0xbd15f15d	-0.036607135
16	0x3cd1439e	0.025544938
17	0xbca2cc03	-0.019872671
18	0xbcaf8e25	-0.021430084
19	0xbcf4af8c	-0.029868864

head_conv.0.depth_wise.weight f4 [20, 1, 3, 3]
0	0x3c022a1a	0.007944608
1	0x3e9b3533	0.30314025
2	0x3adee699	0.0017005979
3	0x3dcaa45b	0.098946296
4	0x3d8a8447	0.06763511
5	0x3d04b108	0.032395393
6	0x3d527b00	0.051386833
7	0x3b064829	0.0020489788
8	0x3cc257bb	0.023723474
9	0x3e2a6d5a	0.16643277
10	0xbe8ff3a1	-0.28115562
11	0x3d90f584	0.070780784
12	0x3e839348	0.25698304
13	0xbe6f673d	-0.23379226
14	0xbdac75b4	-0.084208876
15	0xbe179375	-0.14802344
16	0xbe2de440	-0.16981602
17	0xbe35e613	-0.17763548
18	0x3cb7ea7c	0.022450678
19	0xbe836693	-0.25664195
20	0x3dfd1631	0.12357748
21	0xbd78af7c	-0.06071423
22	0x3e774b41	0.24149801
23	0x3d5bb571	0.053639833
24	0xbd522bf3	-0.051311444
25	0x3dc2eee5	0.09518222
26	0xbe10f835	-0.14157183
27	0xbc376d5c	-0.011195507
28	0x3e2ec638	0.17067802
29	0xbc8b494b	-0.017002722
30	0x3def49e2	0.11684014
31	0xbdb8d15f	-0.09024309
32	0x3d7a5fed	0.06112664
33	0x3d4ece2d	0.050489593
34	0x3e595f5f	0.21227787
35	0x3e321322	0.17390111
36	0x3db34a5f	0.087544195
37	0xbadf6007	-0.0017042168
38	0xbdd6870d	-0.10474978
39	0xbd830b2c	-0.06398615
40	0xbe1dd708	-0.15414059
41	0xbe8e9a91	-0.278523
42	0x3db32075	0.08746425
43	0xbdbc11bc	-0.0918307
44	0xbe7f263c	-0.24916929
45	0x3cebcb48	0.028783455
46	0x3e65d912	0.22446087
47	0x3e47b1f2	0.19501474
48	0xbe305fe2	-0.17224076
49	0xbdd93dd3	-0.10607495
50	0x3e5840bb	0.21118443
51	0xbe2dde35	-0.16979297
52	0x3d775475	0.06038328
53	0xbe64637f	-0.2230358
54	0xbd29fd11	-0.04150111
55	0x3dd4c180	0.1038847
56	0x3e1631fa	0.14667502
57	0xbdb6724b	-0.089085184
58	0x3d9c5134	0.07632676
59	0xbdd2d084	-0.102936774
60	0x3e188218	0.14893377
61	0x3d808d1a	0.06276913
62	0x3ceb7f02	0.028747085
63	0xbde9eac6	-0.114217326
64	0x3e007ffa	0.12548819
65	0x3d9f6d55	0.07784525
66	0xbd93aee5	-0.07211093
67	0xbe457104	-0.19281393
68	0x3e35e09f	0.17761467
69	0x3daf27e5	0.08552531
70	0x3e870636	0.26371926
71	0x3db1a7e2	0.08674599
72	0x3c2c5edd	0.010520664
73	0xbd46baaa	-0.04851786
74	0xbbbc326b	-0.005743315
75	0x3e09bafd	0.13450237
76	0x3e0a0948	0.13480103
77	0xbd5c031c	-0.053713903
78	0x3e39b291	0.18134524
79	0xbd08b0c1	-0.03337169
80	0xbe646fce	-0.22308275
81	0x3e1a7b1c	0.15086025
82	0x3e422bee	0.1896207
83	0x3e075d43	0.1321917
84	0x3c581e3e	0.013190804
85	0x3e7cb14d	0.2467701
86	0x3e953744	0.29143727
87	0x3bd83a27	0.006598729
88	0x3e7c5925	0.24643381
89	0x3d40014c	0.046876237
90	0x3d58a648	0.052892953
91	0x3e9fe536	0.31229562
92	0x3e91c0af	0.28467318
93	0x3db2eae4	0.08736208
94	0x3df1a8a7	0.11799746
95	0x3e328d4f	0.17436717
96	0xbd7cad7b	-0.06168888
97	0xbdeff81d	-0.11717246
98	0xbd7ad9b2	-0.061242767
99	0xbc86fb62	-0.01647729
100	0x3dc63c3f	0.0967946
101	0x3de9d8fd	0.1141834
102	0xbdb62cd5	-0.0889527
103	0xbe3873fa	-0.18012992
104	0x3be05231	0.0068457355
105	0x3e67d9f3	0.22641735
106	0xbe8246d5	-0.25444666
107	0x3e48d457	0.19612251
108	0xbd9b51a6	-0.075839326
109	0x3d85f6a3	0.06541183
110	0x3dc5de26	0.09661512
111	0x3d638fa3	0.055556905
112	0x3ea4a7d5	0.32159296
113	0x3e5cec7a	0.21574584
114	0x3daeae4b	0.085293375
115	0x3e304425	0.17213495
116	0xbd8e2ca0	-0.06942105
117	0xbc4938c4	-0.0122816
118	0xbe32538c	-0.17414683
119	0x3e18cd00	0.14921951
120	0x3ec1678b	0.3777431
121	0xbd8fcb5c	-0.070212096
122	0xbe76e8d7	-0.24112259
123	0xba2ee0c9	-0.0006671069
124	0x3cf65758	0.030070946
125	0x3e72d194	0.2371276
126	0xbdcff3ab	-0.10153898
127	0xbe0df5a0	-0.1386323
128	0x3dcc940e	0.09989177
129	0xbe2584c4	-0.16163927
130	0xbe04d423	-0.12971549
131	0x3dbf37c7	0.093368106
132	0xbded5580	-0.115885735
133	0xbe19e78d	-0.15029736
134	0xbe5afec6	-0.21386251
135	0x3c8cd55c	0.017191581
136	0xbd98535c	-0.074377745
137	0xbdaea075	-0.085266985
138	0xbbebc38b	-0.0071949414
139	0x3d52ab17	0.051432695
140	0x3d1bd1a9	0.038041744
141	0xbe2a0fe4	-0.16607624
142	0x3e35af80	0.17742729
143	0x3ea94fcd	0.33068696
144	0xbdeadf6b	-0.11468395
145	0xbeb73133	-0.35779724
146	0xbe16cd90	-0.14726853
147	0xbdad7bed	-0.084709026
148	0xbe8cfa9e	-0.27534956
149	0xbe0b4144	-0.13599116
150	0xbe0ab1ca	-0.13544384
151	0x3cf9976a	0.030467708
152	0xbbf870f8	-0.0075818263
153	0xbc931364	-0.017953582
154	0x3e4e3f2e	0.20141289
155	0x3daab183	0.08334639
156	0x3c26ed4f	0.010188415
157	0xbe9f9a27	-0.31172296
158	0x3dd16e2a	0.1022609
159	0xbc23affa	-0.009990687
160	0xbeb9cfd2	-0.36291367
161	0xbd3774e0	-0.044789195
162	0x3e1cebc3	0.15324311
163	0x3e37ec46	0.17961225
164	0x3e067c83	0.13133435
165	0x3e6caac3	0.23112015
166	0x3db9da3b	0.09074827
167	0x3e2241d7	0.15845428
168	0xbd0e4ea9	-0.034742985
169	0x3dae23cd	0.08502922
170	0x3eb417e7	0.35174486
171	0x3e466974	0.19376165
172	0x3dafaa7c	0.08577439
173	0xbc9af451	-0.018915327
174	0x3d586f67	0.052840617
175	0xbe6688cf	-0.22513126
176	0x3d000da5	0.031263012
177	0x3e1f49b1	0.15555455
178	0x3d4ca52e	0.049962215
179	0xbcca251a	-0.024675895

head_conv.0.depth_wise.bias f4 [20]
0	0x3d43a066	0.04776039
1	0xbb45cab3	-0.0030180633
2	0xbb9f575a	-0.004862708
3	0x3c9840fe	0.018585678
4	0xbc614fb9	-0.0137519175
5	0xba782447	-0.0009465855
6	0xbcd1eb6a	-0.02562495
7	0x3b559853	0.0032592013
8	0xbc6bbe64	-0.014388654
9	0x3b5c9e82	0.0033663814
10	0xbc79dd8e	-0.015250577
11	0xbbd38b1f	-0.0064557935
12	0x3bd99b88	0.006640855
13	0x3923be34	0.00015615748
14	0x3ccb7b32	0.024839018
15	0xbc7cc36e	-0.015427453
16	0xbc86bb40	-0.01644671
17	0x3c6c713c	0.014431294
18	0xbc4dff93	-0.012573141
19	0xbc89fe44	-0.016844876

head_conv.1.weight f4 [32, 32, 3, 3]
0	0xbd76d3fe	-0.060260765
1	0xbdaf07a2	-0.08546378
2	0x3d4c8a65	0.04993667
3	0xbe0635a9	-0.13106407
4	0x3d3b8bec	0.045787737
5	0xbca25ef6	-0.019820672
6	0x3be12e34	0.006871963
7	0xbdac3c96	-0.08409993
8	0xbc1fbad9	-0.009749138
9	0x3e00ad7f	0.12566184
10	0x3dc7643a	0.097359136
11	0x3dcd6cf7	0.10030549
12	0x3db7f089	0.08981425
13	0x3e0bac8a	0.13640037
14	0x3b4240f4	0.0029640766
15	0xbdaa7235	-0.083225645
16	0x3c80cbc5	0.015722165
17	0xbd9f6943	-0.07783749
18	0x3d11f517	0.035634127
19	0x3ddde5af	0.10834824
20	0x3cb2612e	0.021774855
21	0x3d10bd39	0.035336707
22	0x3e08b56a	0.13350454
23	0x3da13bc6	0.07872729
24	0xbceac382	-0.028657679
25	0x3dce9762	0.10087468
26	0x3de3d963	0.111254476
27	0x3cca96ed	0.02473017
28	0x3d2b139a	0.04176674
29	0xbc149af8	-0.009070151
30	0x3d588e32	0.052869983
31	0x3cae8d3c	0.02130758
32	0x3cc9416c	0.024567328
33	0x3cf71a32	0.030163858
34	0x3d320237	0.043459143
35	0x3c4fc694	0.012681622
36	0xb8cb665d	-9.698861e-05
37	0xbd81c6b9	-0.063367315
38	0x3dad0f3a	0.0845017
39	0xbc7ebe5d	-0.015548316
40	0xbcd334d3	-0.025782024
41	0x3d601ce0	0.054715037
42	0xbdf363d5	-0.11884276
43	0xbc14994e	-0.009069754
44	0x3adab713	0.001668664
45	0x3dad645f	0.0846641
46	0x3ddd9f94	0.10821453
47	0x3daf97d6	0.08573882
48	0x3d2b4a24	0.041818753
49	0x3d643840	0.055717707
50	0xbcb8ebf4	-0.022573449
51	0x3da76174	0.081728846
52	0x3d91d9b3	0.07121601
53	0x3dd28a13	0.10280242
54	0x3c8a7080	0.016899347
55	0xb97d5e6f	-0.0002416314
56	0xbc47b461	-0.012189002
57	0xbdb964d4	-0.090524346
58	0x3e447014	0.1918338
59	0xbd892748	-0.066969454
60	0x3da3b037	0.07992595
61	0xbcd697e2	-0.02619547
62	0xbc5ed28b	-0.013600002
63	0x3a850cd1	0.0010150914
64	0xbccd329a	-0.025048543
65	0xbc24b261	-0.0100522945
66	0x3b5c7d53	0.0033644035
67	0xbd0b8c53	-0.03406937
68	0xbc911fb5	-0.017715314
69	0x3d5a5f29	0.053313408
70	0x3bde20e6	0.006778824
71	0x3c09cc09	0.008410462
72	0x3d883f1b	0.066526614
73	0x3dfb54ee	0.122720584
74	0x3d78d29b	0.060747724
75	0x3dbcd347	0.092199855
76	0x3dfa3685	0.1221743
77	0x3d2eeac4	0.04270436
78	0x3d85026e	0.06494604
79	0x3d436cbd	0.047711123
80	0x3ca39f74	0.019973494
81	0xbc4cc047	-0.012497014
82	0x3d35e356	0.044406258
83	0x3d450a5e	0.04810559
84	0x3cf1e3e2	0.029527608
85	0xbbf6e15b	-0.0075341887
86	0x3c3b68ff	0.011438607
87	0x3dcee13c	0.10101554
88	0x3d3543a7	0.04425397
89	0x3d863a48	0.06554085
90	0xbc7ee670	-0.01555787
91	0xbd5070a5	-0.050888676
92	0xbcd95e8d	-0.026534343
93	0xbda6bb81	-0.08141232
94	0x3cfcd8db	0.030865123
95	0xbdb5288d	-0.08845625
96	0x3ba5cde4	0.0050599445
97	0x3d3e934c	0.046527192
98	0xbd35c61f	-0.044378396
99	0x3d5df324	0.054186955
100	0xbce7282f	-0.028217403
101	0xbc0df704	-0.00866485
102	0x3d621ef2	0.055205293
103	0xbbf7ec31	-0.007565998
104	0x3c247be6	0.010039305
105	0x3d2bf239	0.04197905
106	0x3d1382be	0.036013357
107	0x3d272f38	0.040816516
108	0x3d346cc1	0.04404903
109	0x3df6e868	0.12056047
110	0xbd81d49c	-0.0633938
111	0xbe197924	-0.14987618
112	0xbd212994	-0.039346293
113	0xbd93bbc1	-0.072135456
114	0x3c51b1a9	0.012798705
115	0x3cb960c4	0.02262915
116	0xbe200b4a	-0.15629306
117	0x3d95abe8	0.07308179
118	0xbc17301a	-0.009227777
119	0x3d2cb240	0.04216218
120	0xbd28a20a	-0.041170157
121	0x3dba5638	0.09098476
122	0xbd29956e	-0.041402273
123	0x3d348cdb	0.044079643
124	0x3d44d9f4	0.04805942
125	0x3cc88228	0.024476126
126	0xbd9db6cf	-0.077008836
127	0xbb7c1e66	-0.0038470267
128	0xbe05e9d7	-0.13077484
129	0xbc1273c4	-0.0089387335
130	0xbe3cd20f	-0.18439506
131	0xb876e212	-5.8861515e-05
132	0x3d5fe525	0.05466189
133	0xbce45a8d	-0.02787521
134	0x3d763db7	0.06011745
135	0x3ccad2b2	0.02475867
136	0x3e0140e4	0.1262241
137	0x3d68e4d9	0.05685887
138	0x3ddda66a	0.108227566
139	0xbb83cf89	-0.004022543
140	0x3d975038	0.073883474
141	0x3dbb2087	0.091370635
142	0x3cbb6900	0.022877216
143	0x3daffb79	0.085928865
144	0x3cd6cad6	0.026219767
145	0x3c6881fe	0.014191149
146	0x3da28b07	0.079366736
147	0x3c7ee04a	0.015556404
148	0x3daf46a4	0.085583955
149	0x3dba24b1	0.090890296
150	0xbc8e5147	-0.01737274
151	0xbbfa5073	-0.007638985
152	0x3d8ec925	0.06971959
153	0xbb4e6ff5	-0.0031499837
154	0xbb947fb2	-0.004531824
155	0x3d5cc326	0.053897046
156	0x3d61f698	0.05516681
157	0xbc035676	-0.008016219
158	0x3d3c94c0	0.046040297
159	0x3bb1fa9b	0.005431486
160	0x3d135a33	0.035974693
161	0x3cd24a99	0.025670337
162	0x3cbce505	0.023058424
163	0x3d974d5e	0.073878035
164	0x3d8ceee5	0.06881503
165	0x3c96319d	0.018334204
166	0x3d8c3a0d	0.0684701
167	0x3c2242b5	0.0099035995
168	0x3d493213	0.04912002
169	0x3d8a0598	0.06739348
170	0x3d444056	0.047912918
171	0x3d2a6a01	0.041605
172	0xbdef8b50	-0.116964936
173	0x3d0b24a5	0.033970494
174	0xbc9c561c	-0.019084029
175	0x3b85c99a	0.0040828707
176	0xbdb2c96d	-0.08729825
177	0x3d84113c	0.064486
178	0xbdc9363c	-0.098247975
179	0x3c85a95d	0.01631611
180	0x3c7f6b7a	0.015589589
181	0xbdaf0b4b	-0.08547076
182	0x3d5fac7c	0.054607853
183	0x3d1baf27	0.038008835
184	0xbd847dc1	-0.06469298
185	0x3e3715d3	0.17879419
186	0xbb853dbf	-0.0040661986
187	0xbda06fe9	-0.07833845
188	0x3d36865c	0.04456173
189	0xbd2643d6	-0.040592037
190	0xbd57f4f6	-0.052723847
191	0x3cd4e5f9	0.025988566
192	0xbd3212c8	-0.043474942
193	0x3d0bcd82	0.034131534
194	0xbe0e2bcb	-0.13883893
195	0x3d8de756	0.069288895
196	0xbb59ee44	-0.003325359
197	0xbd6efe7f	-0.058348175
198	0x3a902e98	0.0011000214
199	0x3d0e9389	0.03480867
200	0x3cf576fd	0.029963965
201	0x3d7b1733	0.06130142
202	0xbc3459e3	-0.011007759
203	0x3bb8f692	0.005644628
204	0xbcb8e6e7	-0.02257104
205	0x3cf27e82	0.02960134
206	0xbd703fd3	-0.058654618
207	0x3d126829	0.035743866
208	0xbc5d92d9	-0.013523781
209	0xbd1997de	-0.037498347
210	0x3d5663ee	0.052341394
211	0x3c9c4695	0.019076625
212	0xbae09740	-0.001713492
213	0x3d733ff5	0.059387166
214	0x3d3217b8	0.04347965
215	0x3c516c2e	0.01278214
216	0x3c903c57	0.017606897
217	0x3c2b7cf3	0.010466802
218	0xbd3a9ac2	-0.045557745
219	0xbc0889f3	-0.008333671
220	0xbd64327c	-0.05571221
221	0xbdb898d5	-0.090135254
222	0xbe3f6f53	-0.1869481
223	0xbe1bc40f	-0.15211509
224	0xbd90473e	-0.07044838
225	0xbda0cd8b	-0.07851704
226	0x3db8f527	0.09031134
227	0xbdcbdbc7	-0.099540286
228	0x3de951e0	0.113925695
229	0xbdd38209	-0.103275366
230	0xbd208542	-0.039189585
231	0xbd01b308	-0.031664878
232	0xbd2ca156	-0.04214605
233	0xbd6d425c	-0.057924613
234	0xbd5e6a73	-0.054300737
235	0x3d7b96ff	0.061423298
236	0x3d8663d2	0.06562008
237	0x3d7989fb	0.060922604
238	0xbcb40aa8	-0.021977738
239	0x3df90977	0.121600084
240	0x3d34f37a	0.04417751
241	0x3d943825	0.07237271
242	0xbc931009	-0.017951982
243	0xbd0f2836	-0.034950458
244	0x3d90c01d	0.07067893
245	0x3cdf1a1b	0.027234128
246	0xbda939cc	-0.08262977
247	0x3ccd02d5	0.025025764
248	0x3b2b3698	0.002612507
249	0xbc71b891	-0.014753477
250	0xb89b4964	-7.404646e-05
251	0xbdb7e27c	-0.08978745
252	0x3d4e1f32	0.05032272
253	0x3cc07276	0.02349208
254	0xbdd8d13a	-0.10586782
255	0x3dd2b279	0.10287947

head_conv.1.point_wise.weight f4 [32, 20, 1, 1]
0	0xbd89c547	-0.06727081
1	0xbcb8a1ab	-0.022538027
2	0xbe4a6528	-0.1976515
3	0xbef2c54e	-0.47416157
4	0x3edc0dea	0.42979366
5	0xbe8cabe4	-0.27474892
6	0xbe5c02c8	-0.21485436
7	0x3eef3c66	0.46725768
8	0x3deec7cc	0.11659202
9	0x3ec17996	0.37788075
10	0x3deac5ee	0.11463533
11	0xbd6b7b37	-0.057490554
12	0x3e0ba207	0.13636027
13	0x3ea95b0f	0.33077285
14	0x3e11f39a	0.14253083
15	0xbf097649	-0.53696114
16	0xbe7f75c5	-0.2494727
17	0x3e7b6e8b	0.24553888
18	0xbebc5182	-0.36780936
19	0x3f2d2fc0	0.67650986
20	0xbda8ae0c	-0.08236322
21	0x3ee3b9ca	0.44477683
22	0x3db2ca49	0.08729989
23	0x3db4234b	0.08795794
24	0x3dd0c544	0.101938754
25	0x3f17d734	0.5931275
26	0x3d16842a	0.036747135
27	0x3e1eb53f	0.15498827
28	0x3b657655	0.0035013158
29	0x3d5d8347	0.054080274
30	0x3dc5ba26	0.096546456
31	0x3df943e7	0.121711545
32	0x3e021a46	0.12705335
33	0xbe291de9	-0.16515316
34	0xbea8adba	-0.32945043
35	0xbeb836e5	-0.3597938
36	0x3ed5da25	0.41767994
37	0x3f06c54d	0.5264481
38	0x3ed20e2d	0.4102644
39	0x3cb4f606	0.02208997
40	0x3ec012a3	0.3751422
41	0x3e3ba534	0.18324739
42	0x3e37577e	0.1790447
43	0x3d9758af	0.07389962
44	0xbe3fb8d1	-0.18722846
45	0xbed19c0b	-0.40939364
46	0x3dfbec84	0.12300971
47	0x3ef1e8d8	0.47247958
48	0xbd9e4741	-0.07728434
49	0x3dc1c77b	0.09461876
50	0x3d6781f8	0.056520432
51	0xbe1975ad	-0.14986296
52	0x3cc1cb7c	0.0236566
53	0xbe92395b	-0.28559384
54	0x3ed140b3	0.40869674
55	0xbe9778e3	-0.29584417
56	0x3d8ee1ab	0.069766365
57	0xbe491bce	-0.19639513
58	0xbce321d2	-0.027726088
59	0xbe7bb91d	-0.24582334
60	0xbe56f6db	-0.20992605
61	0x3bcb139f	0.0061974074
62	0xbeeeb6cf	-0.46623847
63	0x3e1534ab	0.14570872
64	0xbacc5c34	-0.0015591444
65	0x3da4143b	0.08011671
66	0xbe4a93cc	-0.19782943
67	0xbe37395f	-0.17892979
68	0xbdd7b3b7	-0.10532325
69	0xbc473ed8	-0.012160979
70	0xbe8be9be	-0.2732677
71	0xbd6915d8	-0.056905597
72	0x3f4011f2	0.7502738
73	0xbec0b05a	-0.37634546
74	0x3cf3a5c6	0.029742133
75	0xbe2e1718	-0.17000997
76	0xbebdfabb	-0.37105355
77	0xbe12294c	-0.14273566
78	0x3dfe6a5c	0.1242263
79	0x3df039ee	0.11729799
80	0x3eaca07e	0.33716196
81	0xbf237c7d	-0.6386183
82	0x3e7a7774	0.2445963
83	0x3dd29393	0.10282054
84	0x3f0aaff1	0.54174715
85	0xbb423884	-0.0029635737
86	0xbe012fbb	-0.12615864
87	0xbdb341a6	-0.08752756
88	0xbd6231fe	-0.055223458
89	0x3b4a63a6	0.003088215
90	0x3e984b5b	0.29744992
91	0xbe793fff	-0.24340819
92	0xbdfecf7f	-0.124419205
93	0xbdb61bd7	-0.08892029
94	0xbd05e957	-0.032693233
95	0x3e3cfe23	0.1845632
96	0x3e4e24e3	0.20131259
97	0xbea4e30e	-0.3220448
98	0x3dabebb5	0.08394567
99	0x3e01aa22	0.12662557
100	0x3d84e906	0.06489758
101	0x3e721b95	0.23643334
102	0x3dc68e1c	0.09695074
103	0x3e81520e	0.25257915
104	0x3e649da4	0.2232576
105	0xbe5b3080	-0.2140522
106	0x3e81ce52	0.25352722
107	0xbdde6d64	-0.10860708
108	0xbebb3bad	-0.36568967
109	0x3ee13937	0.43988964
110	0x3e3a48dc	0.18191856
111	0x3e7305df	0.23732708
112	0x3cf69b63	0.030103391
113	0xbecf0a73	-0.4043766
114	0xbd4d1d8a	-0.050077
115	0x3ede6b9d	0.43441477
116	0xbeeb6cee	-0.45981544
117	0xbcde0df6	-0.027106266
118	0xbee9cc02	-0.45663458
119	0x3ebb1c4d	0.3654503
120	0x3cb94dfd	0.022620196
121	0xbe72c1c8	-0.23706734
122	0xbea4f81f	-0.3222055
123	0xbe93e716	-0.28887242
124	0x3e63029f	0.22168969
125	0xbe863db5	-0.26218954
126	0xbd91c199	-0.07117004
127	0x3e6ae12d	0.2293746
128	0x3ede8e9a	0.4346817
129	0xbe026559	-0.12733974
130	0x3ebcbf6a	0.36864787
131	0xbd86f70e	-0.06590091
132	0x3e5765e4	0.21034962
133	0xbb2b2099	-0.002611196
134	0x3f11e094	0.56983304
135	0x3eb71ceb	0.3576425
136	0xbe6ecde9	-0.23320736
137	0xbe1ac843	-0.15115456
138	0x3d4ceddc	0.050031528
139	0xbf1a2aa5	-0.6022132
140	0x3e2a0f47	0.1660739
141	0xbbb49ce8	-0.0055118687
142	0x3e0ddfab	0.13854854
143	0xbe4ae34e	-0.19813272
144	0x3e301fe3	0.17199664
145	0x3e869bcc	0.2629074
146	0x3d9ad648	0.07560402
147	0x3e690b73	0.22758274
148	0x3e433297	0.19062267
149	0xbe239600	-0.15975189
150	0x3cafb6a9	0.021449404
151	0x3e0221cf	0.1270821
152	0x3f3e27e0	0.74279594
153	0xbdbf3610	-0.093364835
154	0x3e40b8da	0.18820515
155	0x3e9d95a0	0.30778217
156	0xbf108925	-0.56459266
157	0xbe62a8d1	-0.22134711
158	0xbef5d582	-0.48014456
159	0x3e69aa44	0.22818857
160	0x3ee52657	0.44755813
161	0x3eb93608	0.36174035
162	0xbec39629	-0.382005
163	0x3d11e7ca	0.035621442
164	0x3e9ed0ad	0.31018582
165	0x3eb15856	0.34637707
166	0xbe00dee0	-0.1258502
167	0xbdf3d0d1	-0.11905063
168	0xbd0ba7cb	-0.034095567
169	0xbe41e9b1	-0.18936802
170	0xbe2185d5	-0.15773709
171	0x3e35e316	0.17762408
172	0xbe8e764f	-0.27824637
173	0x3e35eb54	0.17765552
174	0xbdba1d30	-0.09087598
175	0x3e3bc8ad	0.1833827
176	0xbdc8d420	-0.09806085
177	0xbe80f955	-0.25190225
178	0xbe02e04c	-0.12780875
179	0x3ebac5fd	0.36479178
180	0x3ef527b6	0.4788186
181	0x3ea5da52	0.32393128
182	0xbe7c3374	-0.24629003
183	0x3dfe21c6	0.124087855
184	0x3e88ad6a	0.26694804
185	0x3dc5ba5f	0.09654688
186	0xbe328524	-0.17433602
187	0xbeacfed4	-0.33788168
188	0xbcd8f62a	-0.026484568
189	0x3e4fe97d	0.20303912
190	0x3d5c09bb	0.053720217
191	0xbe0ce2ec	-0.13758439
192	0x3e048824	0.12942559
193	0xbdbca64d	-0.09211407
194	0xbf1ee04c	-0.62061
195	0x3eb2e2f1	0.34938768
196	0x3dd6e2f1	0.104925044
197	0xbefac99e	-0.48981947
198	0xbf2d0bac	-0.67595935
199	0xbdc66a59	-0.09688253
200	0x3ee1202e	0.43969864
201	0xbe8dc353	-0.27688083
202	0xbe479866	-0.19491729
203	0xbea01833	-0.31268463
204	0xbeadbed1	-0.33934644
205	0x3e367784	0.17819029
206	0xbe480a10	-0.19535089
207	0xbea6f972	-0.32612187
208	0xbf641219	-0.89090115
209	0x3e974fe0	0.29553127
210	0x3b27766e	0.0025552767
211	0xbefc3ff8	-0.49267554
212	0xbc914528	-0.017733172
213	0xbf21e67b	-0.6324231
214	0x3e0876a5	0.1332651
215	0xbeb514b9	-0.35367373
216	0x3e84ffc3	0.2597638
217	0xbea96fe1	-0.3309317
218	0x3e5ec517	0.21754871
219	0xbeae7ea6	-0.34081
220	0x3ef3b80f	0.47601363
221	0x3e58db48	0.21177399
222	0xbe7fcb73	-0.24979953
223	0xbe125364	-0.14289623
224	0xbc74d2cb	-0.014942835
225	0x3e5097a9	0.20370354
226	0xbe27d3f7	-0.16389452
227	0x3ea1c445	0.31595054
228	0xbda5472c	-0.080702156
229	0xbe0c48d8	-0.13699663
230	0x3ec03adf	0.37544915
231	0xbcd68f79	-0.02619146
232	0x3db34b39	0.08754582
233	0xbe0dfe31	-0.13866498
234	0xbdf3ef2e	-0.11910854
235	0xbe37669d	-0.17910238
236	0x3ec5756c	0.38566148
237	0xbe29f240	-0.16596317
238	0x3e857b96	0.2607085
239	0xbc560d52	-0.013064699
240	0x3e687ae5	0.2270313
241	0x3e398da5	0.1812044
242	0xbf0e0d84	-0.55489373
243	0x3daec0b6	0.085328504
244	0xbde1a981	-0.110186584
245	0xbe426e8b	-0.18987481
246	0x3edc7835	0.4306046
247	0xbe6e57e8	-0.23275721
248	0xbe10fefc	-0.14159769
249	0xbebf5cbb	-0.37375435
250	0xbd9aef3a	-0.0756516
251	0xbec427d2	-0.3831163
252	0xbe662c1e	-0.22477767
253	0xbd124612	-0.035711356
254	0x3ea0c312	0.31398827
255	0x3dedb19e	0.116061434

head_conv.1.point_wise.bias f4 [32]
0	0x3ac018de	0.0014655848
1	0x3c762502	0.015023472
2	0x3b381ef6	0.0028094626
3	0xbccdd8ea	-0.025127847
4	0x3bfc46b0	0.0076988563
5	0xbbc4e653	-0.006008902
6	0xbd007fd8	-0.03137192
7	0x3c1dc1ce	0.009628726
8	0x3b7eb984	0.00388679
9	0x3d09a2b6	0.03360244
10	0x3b1802f1	0.0023195113
11	0xb89b9e34	-7.4204436e-05
12	0x3bb480e9	0.0055085314
13	0xbc850f17	-0.016242547
14	0x3cc1c6ba	0.02365433
15	0xbc11feb0	-0.00891082
16	0xbac06967	-0.001467985
17	0xbc96a067	-0.018387033
18	0xbbe60762	-0.007019923
19	0x3c880691	0.016604694
20	0xbb02991c	-0.0019927686
21	0x3bec9055	0.007219354
22	0xbbc2a810	-0.005940445
23	0xbc96b9c0	-0.01839912
24	0xbcd28cbc	-0.025701873
25	0xbbb28120	-0.005447522
26	0xbd2532a2	-0.04033149
27	0xbc1e6f06	-0.009670025
28	0xbc608849	-0.013704368
29	0x3d23f6bc	0.040030226
30	0xbbd8e5df	-0.0066191996
31	0xbbf1f593	-0.007384011

head_conv.1.depth_wise.weight f4 [32, 1, 3, 3]
0	0xbe0ffe9f	-0.14061974
1	0x3d6a8dc1	0.057264093
2	0xbd8594cf	-0.065225236
3	0xbe56b88e	-0.2096884
4	0x3e322096	0.17395243
5	0xbc70ef79	-0.014705532
6	0xbd65a5bd	-0.056066263
7	0x3ce925f0	0.028460473
8	0x3d1d4175	0.038392503
9	0xbd7f502e	-0.062332325
10	0xbb79294e	-0.0038019004
11	0x3e16d2ae	0.14728805
12	0x3d33d85d	0.043907512
13	0xbd767a2d	-0.06017511
14	0x3d455133	0.04817314
15	0x3de8f1be	0.11374234
16	0x3e2e8daa	0.17046228
17	0x3e3912ee	0.18073627
18	0xbd8c172e	-0.06840359
19	0x3b25ace1	0.0025280046
20	0xbe5ed5fa	-0.21761313
21	0x3df40083	0.1191416
22	0x3e727883	0.23678784
23	0xbb102736	-0.0021996028
24	0x3dd9ae30	0.10628927
25	0x3e1a1e48	0.15050614
26	0x3c31e60d	0.010858071
27	0x3c99bb76	0.018766146
28	0xbcba9736	-0.022777181
29	0x3d9eb5cc	0.07749519
30	0xbe0ab005	-0.13543709
31	0xbdd311e9	-0.103061505
32	0xbd6ba388	-0.057529002
33	0xbe1dd4dd	-0.15413232
34	0xbe48d832	-0.19613722
35	0x3e324d7e	0.17412373
36	0xbc12777e	-0.008939622
37	0x3d9ad8e5	0.075609006
38	0xbda94643	-0.082653545
39	0xbe2bbd9b	-0.16771547
40	0xbe188768	-0.14895403
41	0xbe369738	-0.17831123
42	0xbcef58d8	-0.029217169
43	0xbe1a6095	-0.15075906
44	0xbd764c94	-0.060131624
45	0xbdffe24e	-0.12494336
46	0xbd19fd05	-0.037594814
47	0xbd8786fd	-0.06617544
48	0x3e7a29f3	0.24430065
49	0xbb38dad3	-0.0028206601
50	0xbc28b33b	-0.010296638
51	0xbc94220d	-0.018082643
52	0xbe81f607	-0.25383016
53	0xbd8f9b50	-0.070120454
54	0xbd881a2a	-0.066456154
55	0xbe277afc	-0.16355509
56	0xbd194c48	-0.037426263
57	0x3d489120	0.048966527
58	0x3e6c4e24	0.23076683
59	0xbd96bf5b	-0.07360717
60	0xbdcbf596	-0.09958951
61	0x3d415704	0.047202125
62	0x3c6ccc71	0.0144530395
63	0x3e029e18	0.1275562
64	0x3d728277	0.059206452
65	0x3d958a09	0.07301719
66	0x3e1151dd	0.14191385
67	0x3e0c37a4	0.136931
68	0x3d97cfd0	0.07412684
69	0x3d9fe499	0.078072734
70	0x3ca6346f	0.020288674
71	0x3cd81dab	0.026381334
72	0x3d8aaf2b	0.06771692
73	0x3d5f143e	0.054462664
74	0x3dbb9a56	0.091602966
75	0xbd9dd6c8	-0.07706982
76	0xbe361bd2	-0.1778405
77	0xbe5d9bb9	-0.21641435
78	0xbd8373ea	-0.06418593
79	0xbe3b0196	-0.18262324
80	0xbd290883	-0.041267883
81	0x3ca0e6b5	0.01964126
82	0x3e3fc0ff	0.18725966
83	0x3e80a5bb	0.25126442
84	0xbc9382f3	-0.018006777
85	0x3ca6b347	0.020349158
86	0xbdbde576	-0.09272282
87	0xbe019945	-0.12656124
88	0x3c4fd685	0.012685423
89	0xbd093f26	-0.03350749
90	0x3dc8fa84	0.09813407
91	0x3da83bd7	0.082145385
92	0x3e6b035d	0.22950502
93	0x3dcc14b3	0.099648856
94	0xbe5abacd	-0.21360321
95	0x3eaeba0b	0.34126315
96	0xbdb61587	-0.08890825
97	0x3e16a299	0.14710464
98	0xbdbbd55c	-0.091715544
99	0xbd099b77	-0.03359553
100	0xbc263ca2	-0.010146292
101	0xbd3c0a08	-0.045908004
102	0xbe20b3aa	-0.15693536
103	0xbda23a33	-0.07921257
104	0xbcf1a734	-0.029498674
105	0xbcd28869	-0.025699811
106	0xbe75252a	-0.23939958
107	0xbdab0e03	-0.08352282
108	0x3eb468d1	0.3523622
109	0x3e0e69db	0.13907568
110	0x3d9d5473	0.07682123
111	0xbc167cd2	-0.009185033
112	0xbe2196e1	-0.15780212
113	0xbd2a851e	-0.041630857
114	0xbe3812c1	-0.17975904
115	0x3dff51ef	0.124667995
116	0x3c22d71e	0.009938983
117	0xbdf5c98d	-0.120013334
118	0xbe153e68	-0.14574587
119	0x3cdba1b0	0.026810497
120	0x3b7fa7a6	0.0039009838
121	0xbe705eb3	-0.23473625
122	0x3e01a3c4	0.12660128
123	0xbd071fa6	-0.032989167
124	0x3cf9490d	0.030430341
125	0xbdabead4	-0.08394399
126	0xbc0c053a	-0.008546168
127	0x3d737ccd	0.05944519
128	0x3e0b6a5b	0.1361479
129	0x3d33bfa5	0.04388394
130	0xbebeda71	-0.37276033
131	0x3d0f03cd	0.034915734
132	0x3dc98ffb	0.09841915
133	0x3c4604be	0.012086092
134	0x3bd85e7e	0.006603061
135	0xbe4da1d8	-0.2008127
136	0x3e633bf3	0.22190838
137	0xbe298515	-0.16554673
138	0x3e4d596d	0.20053644
139	0xbc37ec0e	-0.011225713
140	0xbd15c2e5	-0.03656282
141	0xbdc113a2	-0.09427573
142	0xbda5277f	-0.08064174
143	0x3dcc3fad	0.09973083
144	0x3e06518b	0.13117044
145	0x3e69ead7	0.2284349
146	0x3bc69279	0.0060599414
147	0x3d2ee9d4	0.042703465
148	0xbd069982	-0.03286124
149	0xbe806eda	-0.25084573
150	0xbe38c1be	-0.18042657
151	0xbccc0b27	-0.024907662
152	0xbe871922	-0.26386362
153	0x3e19a85c	0.1500563
154	0xbdb1c089	-0.08679301
155	0xbbc6802f	-0.006057761
156	0x3b90cc76	0.004418905
157	0xbe1cbc53	-0.15306215
158	0xbe6e2bc3	-0.23258881
159	0xbcc998f4	-0.024609067
160	0xbd971351	-0.07376731
161	0xbc792664	-0.015206907
162	0xbe11a0d2	-0.14221504
163	0xbddc6ccd	-0.107629396
164	0xbe36319e	-0.17792365
165	0x3de5a991	0.11213983
166	0xbd5e8682	-0.054327495
167	0xbd7d9880	-0.061913013
168	0xbddfc496	-0.10926168
169	0xbdd3749f	-0.10324978
170	0xbca6716b	-0.020317754
171	0xbdfaf864	-0.12254408
172	0x3e81140a	0.252106
173	0xbdee9116	-0.11648767
174	0xbdfc1965	-0.12309531
175	0x3e0cdfe9	0.1375729
176	0x3e0e9cc0	0.13926983
177	0xbe04fb22	-0.12986425
178	0x3ce60e46	0.028082978
179	0xbda65b89	-0.08122928
180	0x3d47dc5b	0.04879413
181	0x3c2c7474	0.010525811
182	0x3ea99d37	0.33127758
183	0xbd5633cb	-0.052295487
184	0xbe1d50c6	-0.15362844
185	0x3db44610	0.08802426
186	0xbc38a8fe	-0.01127076
187	0xbddeac46	-0.10872702
188	0xbdeb8965	-0.11500815
189	0xbea6e35d	-0.3259534
190	0x3c76e6d1	0.015069679
191	0x3dec54f0	0.11539638
192	0xbdacfc46	-0.08446555
193	0xbd943a6c	-0.072377056
194	0x3e821225	0.25404468
195	0xbd885482	-0.066567436
196	0x3e223ebc	0.15844244
197	0xbe23aa71	-0.15982987
198	0x3dd3533a	0.103186086
199	0xbe308466	-0.17238006
200	0x3da7fd77	0.082026415
201	0x3df51bcf	0.11968195
202	0xbd6a7636	-0.05724164
203	0xbe186031	-0.14880444
204	0xbe3f5f57	-0.18688713
205	0xbd31b3ee	-0.043384485
206	0xbcae05e7	-0.021243049
207	0xbbf669b5	-0.0075199255
208	0xbd6c8bef	-0.05775064
209	0xbd6dfd83	-0.058103096
210	0xbdcd8e45	-0.100369014
211	0xbe5adda0	-0.21373606
212	0xbe13c55d	-0.14430757
213	0x3c8ce12b	0.017197212
214	0xbd471fff	-0.0486145
215	0xbc9afb60	-0.018918693
216	0xbc495a9f	-0.012289672
217	0x3bf1d95d	0.007380648
218	0x3dc148a0	0.0943768
219	0xbe21a37e	-0.15785024
220	0xbdea7aae	-0.114491805
221	0x3dd34b0e	0.1031705
222	0xbd610798	-0.054938883
223	0xbd86d1e3	-0.065830015
224	0x3e0c937b	0.13728134
225	0xbdc78dbc	-0.097438306
226	0xbeb42a18	-0.35188365
227	0x3df93e5c	0.12170097
228	0xbda76d75	-0.08175174
229	0x3e364437	0.1779946
230	0xbe21339f	-0.15742348
231	0x3da06bc4	0.07833055
232	0xbe7dd578	-0.24788463
233	0x3e80e707	0.2517626
234	0xbbf1e643	-0.0073821857
235	0xbc21c138	-0.009872727
236	0x3e93183d	0.2872943
237	0x3c79940d	0.015233052
238	0xbe2e375f	-0.1701331
239	0xbdc1fcf5	-0.09472076
240	0xbdfb9e20	-0.12286019
241	0x3cb8cfe1	0.022560062
242	0x3bf54667	0.0074851993
243	0x3dcc259b	0.0996811
244	0xbcb35d79	-0.021895157
245	0x3d464210	0.048402846
246	0x3db8d0e2	0.09024216
247	0x3e4013b5	0.18757518
248	0x3ebc8f10	0.36827898
249	0xbdceafcc	-0.10092124
250	0xbe03529c	-0.12824482
251	0xbd53f880	-0.05175066
252	0xbea6ca5e	-0.3257627
253	0x3ca5faa8	0.020261124
254	0xbd22552b	-0.039632004
255	0xbcb1eb62	-0.021718685

head_conv.1.depth_wise.bias f4 [32]
0	0x3b23d89f	0.0025000942
1	0x3c022b6e	0.007944925
2	0x3c6fb3ff	0.014630317
3	0x3d0f37f7	0.03496548
4	0xba9bec5f	-0.0011896006
5	0xbb5c5b1a	-0.0033623637
6	0x3b5b2722	0.0033440073
7	0x3c4fce70	0.012683496
8	0x3af4a8af	0.0018665994
9	0x3c8edb19	0.017438458
10	0x3cb53c1f	0.022123395
11	0x3c137deb	0.009002189
12	0x3c65619c	0.014000323
13	0x3c6f1baa	0.014593998
14	0x3b4cb3bd	0.0031235062
15	0x3cde18b1	0.027111383
16	0x3c61f696	0.013791701
17	0x3c9d2d2e	0.019186582
18	0x3c947b41	0.018125178
19	0xbbbde8e5	-0.0057955855
20	0xba3bc0b0	-0.00071621966
21	0x3909061e	0.00013067617
22	0xbbe82140	-0.007084042
23	0x3ce2b465	0.02767391
24	0xbac10a6e	-0.001472784
25	0x3b7ded25	0.0038746085
26	0x3b73baa6	0.0037190109
27	0x3b3bc8e1	0.0028653669
28	0xbbca706f	-0.006177954
29	0xbc003dc2	-0.007827224
30	0x3b14d56a	0.0022710213
31	0x39799068	0.00023800286

res_block.0.conv1.weight f4 [32, 32, 3, 3]
0	0x3ae47796	0.0017430659
1	0xbc6bb203	-0.014385703
2	0xba8bfec8	-0.0010680789
3	0xbc398ee1	-0.011325569
4	0xbc0ed552	-0.008717852
5	0x39551540	0.00020321179
6	0xbd954ed9	-0.072904296
7	0xbd84e15e	-0.06488298
8	0xbc83b979	-0.016079651
9	0xbc7d73f5	-0.015469541
10	0x3cc83713	0.024440324
11	0xbca07e65	-0.01959152
12	0xbcbf2dd3	-0.02333728
13	0x3c064b54	0.008196671
14	0xbd2af315	-0.041735727
15	0x3cbea018	0.023269698
16	0xbc887f6f	-0.016662328
17	0xbd91cbaa	-0.07118924
18	0xbc990c7a	-0.018682707
19	0xbdcb7ad2	-0.099355355
20	0xbcf7924f	-0.030221133
21	0xbd3f9ab1	-0.046778385
22	0xbe162852	-0.14663818
23	0xbd78103c	-0.060562357
24	0xbcbfdbbf	-0.023420213
25	0xbb3d2d62	-0.0028866162
26	0x3d604971	0.05475754
27	0x3d2795a2	0.040914185
28	0xbd833759	-0.06407041
29	0xbd95cb4e	-0.07314168
30	0x3d231d7a	0.039823033
31	0xbd652a1a	-0.055948354
32	0xbdec45c9	-0.11536748
33	0x3b8e1d0b	0.0043369583
34	0xbda758aa	-0.08171208
35	0xbd8b2268	-0.06793672
36	0xbd876a16	-0.06612031
37	0xbdf9fadb	-0.1220605
38	0xbc7c3ac4	-0.01539487
39	0xbb0ffe10	-0.0021971501
40	0x3c9b5a78	0.018964037
41	0xbd670811	-0.056404177
42	0xbddd410d	-0.10803423
43	0xbd83067b	-0.063977204
44	0xbc1f70d9	-0.009731495
45	0x3e30898b	0.17239968
46	0x3df14473	0.11780634
47	0x3e463b32	0.19358519
48	0x3d7cf16d	0.06175368
49	0x3d29dc6a	0.04146997
50	0x3d6dd395	0.05806311
51	0x3a493ff0	0.0007677069
52	0x3e21f254	0.15815097
53	0x3d790145	0.060792226
54	0x3d9d030b	0.07666596
55	0x3d5d6f85	0.05406143
56	0xbc83e242	-0.0160991
57	0xbc0561ff	-0.00814104
58	0x3cb10083	0.02160669
59	0xbb88cda2	-0.004174904
60	0xbc41cc88	-0.011828549
61	0x3c62d987	0.013845808
62	0xbcdebed6	-0.027190607
63	0xbc4ebe07	-0.012618548
64	0x3d4a01e1	0.049318198
65	0xbd8b5522	-0.06803347
66	0xbdb3dd58	-0.08782452
67	0xbca7bf44	-0.020476945
68	0xbd566837	-0.05234548
69	0xbc9cabca	-0.019124884
70	0x3d457b20	0.048213124
71	0x3b95f12f	0.0045758705
72	0xbc50c410	-0.012742057
73	0xbc504630	-0.0127120465
74	0x3c0e0043	0.008667055
75	0x3c5c0df7	0.013431064
76	0xbd2794e9	-0.040913496
77	0xbcf65e3d	-0.030074233
78	0x3d59fd0e	0.053219847
79	0x3d2064ba	0.03915856
80	0x3d09a62f	0.03360575
81	0x3e13b853	0.14425783
82	0x3ca32609	0.019915598
83	0x3d5dc041	0.054138426
84	0xbbb47249	-0.005506788
85	0xbddddd44	-0.10833219
86	0xbd56bcd1	-0.052426163
87	0x3ca9d90d	0.02073338
88	0xbdc5814d	-0.09643803
89	0xbd5603d5	-0.05224975
90	0xbe03ac28	-0.12858641
91	0xbc43af50	-0.011943653
92	0xbd712bd8	-0.058879703
93	0xbd8b438e	-0.067999944
94	0x3d0b0bde	0.033946864
95	0x3c85f8df	0.016354023
96	0x3d18cc04	0.03730394
97	0x3da1fe7d	0.07909868
98	0x3d4e1d9f	0.050321218
99	0xbd21924b	-0.039446156
100	0xbd0d9c9f	-0.034573194
101	0xbd0001ed	-0.031251837
102	0xbd425c9b	-0.047451597
103	0xbde45eb5	-0.111508764
104	0xbd103a93	-0.03521211
105	0xbd5a71fc	-0.05333136
106	0xbc4db941	-0.012556375
107	0xbcf4f8d0	-0.0299038
108	0x3c7079c3	0.014677468
109	0x3c98e6e5	0.018664787
110	0x3c144a1b	0.009050871
111	0x3ca4fe87	0.0201409
112	0x3c86217d	0.01637339
113	0x3ca1fdaa	0.019774277
114	0x3c1b808d	0.009491098
115	0x3d388495	0.045048315
116	0x3cca4970	0.02469322
117	0x3c142f39	0.009044462
118	0xbc0033df	-0.007824867
119	0x3d551ecd	0.052031327
120	0x3b8d922d	0.004320404
121	0xbcacab36	-0.021077733
122	0x3d108e32	0.035291858
123	0xbc6c5514	-0.014424581
124	0x3b16fdd1	0.002303947
125	0x3d19ed56	0.037579857
126	0x3cedd221	0.029030861
127	0xbd9cc313	-0.07654395
128	0xba867c03	-0.0010260347
129	0x3cbceea2	0.023063008
130	0xbe0573f3	-0.13032512
131	0xbdf1b310	-0.118017316
132	0x3dba8b61	0.09108616
133	0x3b48076b	0.0030522
134	0xbd950181	-0.072756775
135	0x3db428e9	0.087968655
136	0x3cdf9e72	0.027297232
137	0x3db850eb	0.08999809
138	0x3d78b978	0.06072375
139	0xbdb1b317	-0.08676737
140	0x3d16f001	0.03684998
141	0x3dadf07d	0.08493135
142	0x3ca204c5	0.019777665
143	0x3dd21f5d	0.10259888
144	0xbc925c12	-0.017866168
145	0xbd1c8aee	-0.03821843
146	0x3d1d3dc0	0.038388968
147	0x3cb86b97	0.02251224
148	0x3dbcdf88	0.09222323
149	0xbc8d306c	-0.017235003
150	0xbccdc09a	-0.025116254
151	0xbd8e39f8	-0.069446504
152	0xbd2b3614	-0.04179962
153	0xbd837454	-0.06418672
154	0xbc7d198a	-0.0154479835
155	0xbbec3b5b	-0.007209224
156	0x3cc35738	0.0238453
157	0xbd39ca8b	-0.045359176
158	0xbd1e7b69	-0.03869191
159	0x3d10ea77	0.035379853
160	0xbb541e0f	-0.003236655
161	0x3c9fca6d	0.019505704
162	0xbd8990d6	-0.067170784
163	0xbcf4fac3	-0.029904729
164	0x3d280843	0.041023504
165	0x3dc446dc	0.09583828
166	0x3d2d1417	0.042255487
167	0xbd2f0bc0	-0.042735815
168	0x3da7a279	0.08185286
169	0x394ff895	0.00019833662
170	0xbccd0b74	-0.025029875
171	0xbcac25d2	-0.021014128
172	0xbd8dc9de	-0.06923269
173	0x3db31261	0.0874374
174	0xbd8d314d	-0.06894169
175	0xbe1ff2f0	-0.15620017
176	0xbd92ac9d	-0.071618296
177	0xbd8bd797	-0.0682823
178	0xbd08399b	-0.03325806
179	0xbd1c40fd	-0.038147915
180	0xbc41bd60	-0.011824936
181	0xbdaa345a	-0.083107665
182	0xbe1b7025	-0.15179498
183	0x3c30918a	0.010776887
184	0x3ad8ad35	0.0016531112
185	0xbe014810	-0.12625146
186	0xba88fccf	-0.0010451319
187	0x3d1a52a2	0.03767646
188	0xbdea7400	-0.114479065
189	0x3c331255	0.010929664
190	0xbcaecead	-0.021338785
191	0xbac74dbb	-0.0015205661
192	0xbd99ee5d	-0.07516167
193	0xbdc6e356	-0.0971133
194	0xbcc21255	-0.023690382
195	0xbd8a5e43	-0.0675626
196	0xbdb4c0f5	-0.08825866
197	0xbc042aca	-0.008066842
198	0x3c77c1c8	0.015121885
199	0x3d2cfb7e	0.04223203
200	0xbe1460d6	-0.14490065
201	0x3b59fa59	0.003326079
202	0x3df667d7	0.12031525
203	0xbc6eaa00	-0.014566898
204	0xbc9a0bb8	-0.018804416
205	0x3d8ff729	0.07029564
206	0xbcd6c591	-0.026217254
207	0x3cdc9457	0.026926203
208	0xbd73262e	-0.059362583
209	0xbd6d9414	-0.058002546
210	0x3dee8315	0.11646096
211	0x3d57b223	0.05266012
212	0x3cbaf9c3	0.022824174
213	0x3cdccf86	0.026954424
214	0x3e19d612	0.15023068
215	0xbc2f1d1a	-0.010688091
216	0x3c5cea9a	0.013483668
217	0x3d5d6ec6	0.05406072
218	0x3d1becf3	0.03806777
219	0xbd7b83a8	-0.061404854
220	0x3d2495b3	0.040181827
221	0x3d37a7a6	0.044837616
222	0xbb69fa0c	-0.0035702018
223	0x3cd23723	0.025661057
224	0x3cc262e5	0.023728797
225	0xbd708d05	-0.058728237
226	0x3d392d8d	0.045209456
227	0xbdc6223a	-0.09674497
228	0xbcec3f4d	-0.028838778
229	0xbcbec1f9	-0.023285853
230	0xbd715d5c	-0.058926925
231	0xbd973d4e	-0.0738474
232	0x3c97d22a	0.018532831
233	0xbd78afed	-0.06071465
234	0x3c8ebd7a	0.017424334
235	0xbc9790fe	-0.018501755
236	0xbcf21d07	-0.029554857
237	0x3bce3afe	0.0062936535
238	0x3d0178cf	0.031609353
239	0x3de8ad43	0.11361172
240	0x3d72cf2f	0.059279617
241	0x3d5b4e11	0.053541247
242	0xbd06fc08	-0.0329552
243	0x3ca759f3	0.020428633
244	0x3d34d33d	0.044146765
245	0xbe209492	-0.15681675
246	0xbbba6b87	-0.005689088
247	0xbcf1b2af	-0.029504148
248	0xbd9008bf	-0.07032918
249	0x3d2a55f5	0.04158588
250	0x3cfa3dc1	0.030547025
251	0xbc128a21	-0.008944065
252	0x3931ba0d	0.00016949345
253	0x3ae46452	0.0017424917
254	0x3d2b5bbc	0.04183553
255	0xbc9efd88	-0.019408002
